Files already downloaded and verified
9 10
50000
Actual noise … Files already downloaded and verified
loading dataset...
building model...
<bound method Module.parameters of CNN(
  (c1): Conv2d(3, 128, kernel_size=(3, 3), stride=(1, 1), padding=(1, 1))
  (c2): Conv2d(128, 128, kernel_size=(3, 3), stride=(1, 1), padding=(1, 1))
  (c3): Conv2d(128, 128, kernel_size=(3, 3), stride=(1, 1), padding=(1, 1))
  (c4): Conv2d(128, 256, kernel_size=(3, 3), stride=(1, 1), padding=(1, 1))
  (c5): Conv2d(256, 256, kernel_size=(3, 3), stride=(1, 1), padding=(1, 1))
  (c6): Conv2d(256, 256, kernel_size=(3, 3), stride=(1, 1), padding=(1, 1))
  (c7): Conv2d(256, 512, kernel_size=(3, 3), stride=(1, 1))
  (c8): Conv2d(512, 256, kernel_size=(3, 3), stride=(1, 1))
  (c9): Conv2d(256, 128, kernel_size=(3, 3), stride=(1, 1))
  (l_c1): Linear(in_features=128, out_features=10, bias=True)
  (bn1): BatchNorm2d(128, eps=1e-05, momentum=0.1, affine=True, track_running_stats=True)
  (bn2): BatchNorm2d(128, eps=1e-05, momentum=0.1, affine=True, track_running_stats=True)
  (bn3): BatchNorm2d(128, eps=1e-05, momentum=0.1, affine=True, track_running_stats=True)
  (bn4): BatchNorm2d(256, eps=1e-05, momentum=0.1, affine=True, track_running_stats=True)
  (bn5): BatchNorm2d(256, eps=1e-05, momentum=0.1, affine=True, track_running_stats=True)
  (bn6): BatchNorm2d(256, eps=1e-05, momentum=0.1, affine=True, track_running_stats=True)
  (bn7): BatchNorm2d(512, eps=1e-05, momentum=0.1, affine=True, track_running_stats=True)
  (bn8): BatchNorm2d(256, eps=1e-05, momentum=0.1, affine=True, track_running_stats=True)
  (bn9): BatchNorm2d(128, eps=1e-05, momentum=0.1, affine=True, track_running_stats=True)
)>
<bound method Module.parameters of CNN(
  (c1): Conv2d(3, 128, kernel_size=(3, 3), stride=(1, 1), padding=(1, 1))
  (c2): Conv2d(128, 128, kernel_size=(3, 3), stride=(1, 1), padding=(1, 1))
  (c3): Conv2d(128, 128, kernel_size=(3, 3), stride=(1, 1), padding=(1, 1))
  (c4): Conv2d(128, 256, kernel_size=(3, 3), stride=(1, 1), padding=(1, 1))
  (c5): Conv2d(256, 256, kernel_size=(3, 3), stride=(1, 1), padding=(1, 1))
  (c6): Conv2d(256, 256, kernel_size=(3, 3), stride=(1, 1), padding=(1, 1))
  (c7): Conv2d(256, 512, kernel_size=(3, 3), stride=(1, 1))
  (c8): Conv2d(512, 256, kernel_size=(3, 3), stride=(1, 1))
  (c9): Conv2d(256, 128, kernel_size=(3, 3), stride=(1, 1))
  (l_c1): Linear(in_features=128, out_features=10, bias=True)
  (bn1): BatchNorm2d(128, eps=1e-05, momentum=0.1, affine=True, track_running_stats=True)
  (bn2): BatchNorm2d(128, eps=1e-05, momentum=0.1, affine=True, track_running_stats=True)
  (bn3): BatchNorm2d(128, eps=1e-05, momentum=0.1, affine=True, track_running_stats=True)
  (bn4): BatchNorm2d(256, eps=1e-05, momentum=0.1, affine=True, track_running_stats=True)
  (bn5): BatchNorm2d(256, eps=1e-05, momentum=0.1, affine=True, track_running_stats=True)
  (bn6): BatchNorm2d(256, eps=1e-05, momentum=0.1, affine=True, track_running_stats=True)
  (bn7): BatchNorm2d(512, eps=1e-05, momentum=0.1, affine=True, track_running_stats=True)
  (bn8): BatchNorm2d(256, eps=1e-05, momentum=0.1, affine=True, track_running_stats=True)
  (bn9): BatchNorm2d(128, eps=1e-05, momentum=0.1, affine=True, track_running_stats=True)
)>
Evaluating cifar10_coteaching_symmetric_0.2...
Epoch [1/200] Test Accuracy on the 10000 test images: Model1 9.9860 % Model2 9.9860 % Pure Ratio1 0.0000 % Pure Ratio2 0.0000 %
Training cifar10_coteaching_symmetric_0.2...
Epoch [2/200], Iter [50/390] Training Accuracy1: 39.0625, Training Accuracy2: 38.2812, Loss1: 0.0139, Loss2: 0.0140, Pure Ratio1: 81.1040, Pure Ratio2 80.9440
…
