Files already downloaded and verified
9 10
50000
Actual noise … Files already downloaded and verified
loading dataset...
building model...
<bound method Module.parameters of CNN(
  (c1): Conv2d(3, 64, kernel_size=(3, 3), stride=(1, 1), padding=(1, 1))
  (c2): Conv2d(64, 64, kernel_size=(3, 3), stride=(1, 1), padding=(1, 1))
  (c3): Conv2d(64, 128, kernel_size=(3, 3), stride=(1, 1), padding=(1, 1))
  (c4): Conv2d(128, 128, kernel_size=(3, 3), stride=(1, 1), padding=(1, 1))
  (c5): Conv2d(128, 196, kernel_size=(3, 3), stride=(1, 1), padding=(1, 1))
  (c6): Conv2d(196, 16, kernel_size=(3, 3), stride=(1, 1), padding=(1, 1))
  (linear1): Linear(in_features=256, out_features=10, bias=True)
  (bn1): BatchNorm2d(64, eps=1e-05, momentum=0.1, affine=True, track_running_stats=True)
  (bn2): BatchNorm2d(64, eps=1e-05, momentum=0.1, affine=True, track_running_stats=True)
  (bn3): BatchNorm2d(128, eps=1e-05, momentum=0.1, affine=True, track_running_stats=True)
  (bn4): BatchNorm2d(128, eps=1e-05, momentum=0.1, affine=True, track_running_stats=True)
  (bn5): BatchNorm2d(196, eps=1e-05, momentum=0.1, affine=True, track_running_stats=True)
  (bn6): BatchNorm2d(16, eps=1e-05, momentum=0.1, affine=True, track_running_stats=True)
)>
<bound method Module.parameters of CNN(
  (c1): Conv2d(3, 64, kernel_size=(3, 3), stride=(1, 1), padding=(1, 1))
  (c2): Conv2d(64, 64, kernel_size=(3, 3), stride=(1, 1), padding=(1, 1))
  (c3): Conv2d(64, 128, kernel_size=(3, 3), stride=(1, 1), padding=(1, 1))
  (c4): Conv2d(128, 128, kernel_size=(3, 3), stride=(1, 1), padding=(1, 1))
  (c5): Conv2d(128, 196, kernel_size=(3, 3), stride=(1, 1), padding=(1, 1))
  (c6): Conv2d(196, 16, kernel_size=(3, 3), stride=(1, 1), padding=(1, 1))
  (linear1): Linear(in_features=256, out_features=10, bias=True)
  (bn1): BatchNorm2d(64, eps=1e-05, momentum=0.1, affine=True, track_running_stats=True)
  (bn2): BatchNorm2d(64, eps=1e-05, momentum=0.1, affine=True, track_running_stats=True)
  (bn3): BatchNorm2d(128, eps=1e-05, momentum=0.1, affine=True, track_running_stats=True)
  (bn4): BatchNorm2d(128, eps=1e-05, momentum=0.1, affine=True, track_running_stats=True)
  (bn5): BatchNorm2d(196, eps=1e-05, momentum=0.1, affine=True, track_running_stats=True)
  (bn6): BatchNorm2d(16, eps=1e-05, momentum=0.1, affine=True, track_running_stats=True)
)>
Evaluating ...
Epoch [1/200] Test Accuracy on the 10000 test images: Model1 10.0060 % Model2 9.9860 
Training ...
Epoch [2/200], Iter [50/390] Training Accuracy1: 21.0938, Training Accuracy2: 22.6562, Loss1: 0.4460, Loss2: 0.4460, Pure Ratio1 79.8240 % Pure Ratio2 79.8240 %
Epoch [2/200], Iter [100/390] Training Accuracy1: 28.9062, Training Accuracy2: 29.6875, Loss1: 0.4166, Loss2: 0.4166, Pure Ratio1 80.7200 % Pure Ratio2 80.7200 %
…
